…
min=1e-6,t_initial=300,warmup_lr_init=1e-6,warmup_t=5", "lambda_w": 10, "lambda_i": 0.2, "loss_margin": 1.0, "loss_i_type": "mse", "loss_w_type": "mse", "batch_size": 16, "batch_size_eval": 64, "workers": 2, "attenuation": "none", "scale_channels": true, "data_augmentation": "combined", "p_crop": 1.0, "p_res": 0.0, "p_blur": 0.0, "p_jpeg": 1.0, "p_rot": 1.0, "p_color_jitter": 1.0, "debug_slurm": false, "local_rank": -1, "master_port": -1, "dist": false, "seed": 0}
building encoder...

encoder: 
HiddenEncoder(
  (conv_bns): Sequential(
    (0): ConvBNRelu(
      (layers): Sequential(
        (0): Conv2d(3, 64, kernel_size=(3, 3), stride=(1, 1), padding=(1, 1))
        (1): BatchNorm2d(64, eps=0.001, momentum=0.1, affine=True, track_running_stats=True)
        (2): GELU(approximate=none)
      )
    )
    (1): ConvBNRelu(
      (layers): Sequential(
        (0): Conv2d(64, 64, kernel_size=(3, 3), stride=(1, 1), padding=(1, 1))
        (1): BatchNorm2d(64, eps=0.001, momentum=0.1, affine=True, track_running_stats=True)
        (2): GELU(approximate=none)
      )
    )
    (2): ConvBNRelu(
      (layers): Sequential(
        (0): Conv2d(64, 64, kernel_size=(3, 3), stride=(1, 1), padding=(1, 1))
        (1): BatchNorm2d(64, eps=0.001, momentum=0.1, affine=True, track_running_stats=True)
        (2): GELU(approximate=none)
      )
    )
    (3): ConvBNRelu(
      (layers): Sequential(
        (0): Conv2d(64, 64, kernel_size=(3, 3), stride=(1, 1), padding=(1, 1))
        (1): BatchNorm2d(64, eps=0.001, momentum=0.1, affine=True, track_running_stats=True)
        (2): GELU(approximate=none)
      )
    )
  )
  (after_concat_layer): ConvBNRelu(
    (layers): Sequential(
      (0): Conv2d(69, 64, kernel_size=(3, 3), stride=(1, 1), padding=(1, 1))
      (1): BatchNorm2d(64, eps=0.001, momentum=0.1, affine=True, track_running_stats=True)
      (2): GELU(approximate=none)
    )
  )
  (final_layer): Conv2d(64, 3, kernel_size=(1, 1), stride=(1, 1))
  (tanh): Tanh()
)
total parameters: 153219
building decoder...

decoder: 
HiddenDecoder(
  (layers): Sequential(
    (0): ConvBNRelu(
      (layers): Sequential(
        (0): Conv2d(3, 64, kernel_size=(3, 3), stride=(1, 1), padding=(1, 1))
        (1): BatchNorm2d(64, eps=0.001, momentum=0.1, affine=True, track_running_stats=True)
        (2): GELU(approximate=none)
      )
    )
    (1): ConvBNRelu(
      (layers): Sequential(
        (0): Conv2d(64, 64, kernel_size=(3, 3), stride=(1, 1), padding=(1, 1))
        (1): BatchNorm2d(64, eps=0.001, momentum=0.1, affine=True, track_running_stats=True)
        (2): GELU(approximate=none)
      )
    )
    (2): ConvBNRelu(
      (layers): Sequential(
        (0): Conv2d(64, 64, kernel_size=(3, 3), stride=(1, 1), padding=(1, 1))
        (1): BatchNorm2d(64, eps=0.001, momentum=0.1, affine=True, track_running_stats=True)
        (2): GELU(approximate=none)
      )
    )
    (3): ConvBNRelu(
      (layers): Sequential(
        (0): Conv2d(64, 64, kernel_size=(3, 3), stride=(1, 1), padding=(1, 1))
        (1): BatchNorm2d(64, eps=0.001, momentum=0.1, affine=True, track_running_stats=True)
        (2): GELU(approximate=none)
      )
    )
    (4): ConvBNRelu(
      (layers): Sequential(
        (0): Conv2d(64, 64, kernel_size=(3, 3), stride=(1, 1), padding=(1, 1))
        (1): BatchNorm2d(64, eps=0.001, momentum=0.1, affine=True, track_running_stats=True)
        (2): GELU(approximate=none)
      )
    )
    (5): ConvBNRelu(
      (layers): Sequential(
        (0): Conv2d(64, 64, kernel_size=(3, 3), stride=(1, 1), padding=(1, 1))
        (1): BatchNorm2d(64, eps=0.001, momentum=0.1, affine=True, track_running_stats=True)
        (2): GELU(approximate=none)
      )
    )
    (6): ConvBNRelu(
      (layers): Sequential(
        (0): Conv2d(64, 64, kernel_size=(3, 3), stride=(1, 1), padding=(1, 1))
        (1): BatchNorm2d(64, eps=0.001, momentum=0.1, affine=True, track_running_stats=True)
        (2): GELU(approximate=none)
      )
    )
    (7): ConvBNRelu(
      (layers): Sequential(
        (0): Conv2d(64, 64, kernel_size=(3, 3), stride=(1, 1), padding=(1, 1))
        (1): BatchNorm2d(64, eps=0.001, momentum=0.1, affine=True, track_running_stats=True)
        (2): GELU(approximate=none)
      )
    )
    (8): ConvBNRelu(
      (layers): Sequential(
        (0): Conv2d(64, 2, kernel_size=(3, 3), stride=(1, 1), padding=(1, 1))
        (1): BatchNorm2d(2, eps=0.001, momentum=0.1, affine=True, track_running_stats=True)
        (2): GELU(approximate=none)
      )
    )
  )
  (final_conv): Conv2d(2, 1, kernel_size=(1, 1), stride=(1, 1))
  (sigm): Sigmoid()
)
total parameters: 262473
data augmentation: HiddenAug(
  (hidden_aug): AugmentationSequential(
    (Identity_0): Identity()
    (RandomHorizontalFlip_1): RandomHorizontalFlip(p=1, p_batch=1.0, same_on_batch=False)
    (RandomCrop_2): RandomCrop(crop_size=(80, 80), p=1.0, p_batch=1, same_on_batch=False, size=(80, 80), padding=None, pad_if_needed=False, fill=0, padding_mode=constant, resample=bilinear, align_corners=True, cropping_mode=slice)
…
